checkpoint.pth (torch_old, 28423 bytes, 6 tensors)

fc1.weight f4 [64, 37]
00000000: ec79 29be 1a90 ef3b 65df 54bd c88a 043e
00000010: 97f9 a03e d912 ebbb 2821 b13c dc7e 863d
00000020: 05de 123e 3ca4 b43c d99b c9bd 3cc2 92bc
00000030: 879d 6fbd 0483 5dbe 5766 08be baee 113e
00000040: 565c 823d e206 cabd a972 1a3d 3013 7dbe
00000050: 952c 993c 5693 b63d f159 f03c f707 c73d
00000060: 3b6b 0c3c aed8 2f3e 1c3a e7bc 2460 99be
00000070: eff2 8fbe afb1 38bf 57bf e0bc e82a 61bd
00000080: fff2 afbb 18a2 c0bd d24d 4cbe 61a5 ffbd
00000090: 0355 d7bc 7376 033e 77a1 903d 105f ed3d
000000a0: 2ae5 393d bd3a 403d f397 1dbb 32ad 8abe
000000b0: d8d3 74bc 3e84 6b3d 33e9 813d cc6c be38
000000c0: 1287 04be 096f 0d3d c9c8 853e 31f0 42bc
000000d0: ae6e 8b3e 562a 90be cfee a4bc 46ef 41be
000000e0: f5b1 65bf f0cb 30be 1783 17bd f23e 9abd
000000f0: 1b9d c83b be3c 5d3e b806 d5bd 0fe2 b33d
00000100: 42f9 ae3c 6389 debb 69ea 15be b723 78bd
00000110: d787 3c3e 4b38 ad3d f71b 1a3e 4140 f13d
00000120: 42da 08bc 428b 6abb 93d5 a83c e63e fc3c
00000130: e3d5 843e 1311 93be 7365 1c3e 520a 75be
00000140: e185 81be cfda 583e 6a2c c53d a941 cebd
00000150: 78f2 9b3d 3319 08be 530b 6fbd e2e0 eabc
00000160: bba1 123e 1c28 03be ad3d 173e a7cb 903d
00000170: 242a 633d 3f6e 843e 495e d8bd 9b2b 35bd
00000180: 401e b5bd 76e1 313e 5c52 15be 6cbe abbe
00000190: 47f8 553e 02dd d13d 56f6 803c 6c91 d63d
000001a0: d8f1 d9be 1f76 0c3e 93cc 26bd b143 97be
000001b0: 75af 4fbc d5b5 b23d 2d73 223c 8de4 02be
000001c0: 12ee 4dbe 7bce 9d3e 21e1 95be 568c 89bf
000001d0: adfa d3be c9ae b43c 99fb 5b3e b132 bcbe
000001e0: d62a 4ebe 3547 603d 6b9d 8ebc 7479 0e3b
000001f0: cb2c 74bf b1c2 41bd 4588 11be af96 01bf
00000200: 56dd a53d 903e 9bbe ecb5 5dbf 9167 113e
00000210: 864b 13be 6ad3 4dbe f22c a8bd f608 5abc
00000220: 082a 33be c00e 8ebe 70d3 393e bb71 86bd
00000230: f7a2 11bf 39af a0bd 1a1a f53d bd94 e03d
00000240: 9dfe 11bf cdb7 b73d 494b f13d 5be6 7b3c
00000250: d9ae a4be 2a0b fdbd 7b8a d4bd 659b febe
00000260: 3ffc 9fbe 90d7 38be 5ea8 66be 9f4f 913d
00000270: a2d1 33be 9a2d 9dbf 1043 1fbe e8c3 c7bd
00000280: 376a ba3c cfef 08be 3650 e9be e0b8 d1be
00000290: ecdd 8e3d e257 92bd 045d c3bd 6b1b 51be
000002a0: 8af9 e1be 8410 ac3d 4c11 143e 9e13 9abe
000002b0: ed75 16bd ee14 19be 9f2b 71be 2862 5e3e
000002c0: 4350 cbbd 9ca6 b7bf f500 043e 5d2a 25bc
000002d0: a893 0abd 5caf b7be 5af0 55bd e18b 503c
000002e0: 628a 7f3c e3b4 7ebd 04f7 333c 8a24 e53c
000002f0: c4fd 883d c8d8 163c 4440 a23e 9a5c 90bd
00000300: 85d0 8ebe 48ca 95be 8e9d fcbf 40ec 03be
00000310: 17a0 c53d 0d9f bbbb 8120 0bbd 6fe9 053d
00000320: 07e6 0fbd 3d64 963d e3d9 593c 2707 413d
00000330: 476e 16be e412 683d e259 b13d 5274 ea3d
00000340: 64c2 df3d 213f 84bd 1ffa 46bd d64e 903c
00000350: ac08 cb3d 7bb0 fd3d 77f5 543d 906b a03c
00000360: d19b 6abb 1bd5 0dbd 0ec3 a53d c329 27be
00000370: ac0d 68bc bfe7 303c ed6b c03d b4a8 a2bd
00000380: 13dd 53bd 0aca c8bd dd17 b5be 5976 6bbe
00000390: 273b 65be 92e6 2f3e 8a90 57bc 3cc9 1b3d
000003a0: 57c2 e8bc 87f9 063e 7441 f53d d603 e6be
000003b0: dfed ff3d edd9 b2be 8a28 503c 13c9 f03d
000003c0: 5799 40be 3bfd 2e3e a15e 3f3e 0a7d 53be
000003d0: 4128 7ebd 9090 00bf 75a2 dfbe 9be8 2dbe
000003e0: b49b f73d d68c a1be 4559 bbbd b2bd b93c
000003f0: 71f1 fb3d 9c2d acbc a8e1 e73c 6ab2 68be
-0.16550416 0.0073108794 -0.051970858 0.12943566 0.31440422 -0.0071738777 0.021622255 0.06567165
0.14342506 0.02205097 -0.09844179 -0.017914884 -0.05849984 -0.2163201 -0.1332029 0.14251223
0.06365268 -0.09864594 0.037707005 -0.2471435 0.018698016 0.08914821 0.029339762 0.09718316
0.008570488 0.171725 -0.02822595 -0.29956162 -0.2811503 -0.72146124 -0.027434988 -0.05497256
-0.0053695436 -0.09405917 -0.19951561 -0.124827154 -0.026285654 0.12838154 0.07062047 0.11590397
0.045384564 0.046931017 -0.0024046868 -0.27085263 -0.014943086 0.057499163 0.06343307 9.080171e-05
-0.1294215 0.03452972 0.2612975 -0.011898086 0.2723288 -0.281573 -0.020133404 -0.18938932
-0.89724666 -0.17265296 -0.03699025 -0.07531537 0.006122244 0.21605203 -0.10401672 0.08783352
0.02135909 -0.00679128 -0.14640202 -0.060580935 0.18411194 0.08458003 0.1504973 0.117798336
-0.008352818 -0.003578857 0.020609653 0.030791711 0.25944433 -0.28723964 0.15273075 -0.23929718
-0.25297454 0.21177219 0.09627612 -0.100711174 0.076146066 -0.13290863 -0.05836041 -0.028671686
0.14319508 -0.1280827 0.14769621 0.070700936 0.05546011 0.2586536 -0.105648585 -0.04423104
-0.0884366 0.17371163 -0.14582199 -0.33543718 0.20895492 0.10247232 0.015742462 0.10476956
-0.42567325 0.13716935 -0.04072244 -0.29543832 -0.01267611 0.08726088 0.009915155 -0.12782498
-0.20110348 0.30821595 -0.29273322 -1.0745952 -0.41402188 0.022056 0.21482696 -0.36757424
-0.20133528 0.05475541 -0.017409047 0.0021739872 -0.9538085 -0.047304813 -0.14212139 -0.5062055
0.08098857 -0.3032117 -0.86605716 0.14199664 -0.14384279 -0.2010018 -0.08211698 -0.0133078005
-0.17496502 -0.27745628 0.18147063 -0.06564661 -0.5688929 -0.07845921 0.11967869 0.109658696
-0.57029134 0.08970604 0.11781938 0.015374745 -0.32164648 -0.12355645 -0.103779756 -0.49727932
-0.31247136 -0.1805098 -0.22525164 0.07095265 -0.17560437 -1.2279541 -0.15552926 -0.09754163
0.022755725 -0.1337273 -0.4556901 -0.4096136 0.06975922 -0.071456686 -0.09539226 -0.20420615
-0.44135696 0.084015876 0.14459723 -0.30093092 -0.036733557 -0.1494939 -0.23551796 0.21717131
-0.09927418 -1.434772 0.1289099 -0.010080901 -0.033832222 -0.35875976 -0.05223117 0.012728662
0.015596958 -0.062184226 0.010984186 0.027971525 0.06689027 0.009206958 0.31689656 -0.07048912
-0.27893463 -0.2925589 -1.9735582 -0.12883091 0.09649675 -0.0057257474 -0.033966545 0.032693323
-0.03513148 0.07343338 0.013296577 0.04712596 -0.14690505 0.05665864 0.08659722 0.114479676
0.10925749 -0.064573534 -0.048578378 0.017615717 0.099137634 0.123871766 0.051991906 0.01958254
-0.003579844 -0.03462706 0.08093844 -0.16324525 -0.014163416 0.01079744 0.09395585 -0.07942334
-0.051724505 -0.09804161 -0.3536977 -0.22994365 -0.22385846 0.171778 -0.013157019 0.03803371
-0.028412981 0.13181125 0.11975375 -0.44924802 0.12496542 -0.3493189 0.012704978 0.11757102
-0.18808495 0.17088787 0.18688442 -0.20653167 -0.062050108 -0.50220585 -0.43678632 -0.16983263
0.12090245 -0.31552762 -0.09147886 0.022673462 0.12301911 -0.021017842 0.028305843 -0.2272431

fc1.bias f4 [64]
00000000: cd6e cd3d 1edc e6bc 716c 43be 5cef 55bd
00000010: 0d31 fe3d d500 483c f596 c0bd 6e80 9f3d
00000020: bcfc d5bc 8245 7dbe e002 2f3e 6271 003e
00000030: 2724 cd3d 71c2 623d a929 20bc 8816 70bd
00000040: 8caf 85bc 942f 4bbd f50c 0abd 307b 60be
00000050: 13de e7bd bb6d df3c 16e4 cb3d f76e 113c
00000060: f65a 03be ec17 913e 20a3 e0bc 54e1 51be
00000070: d113 263e 7d44 deb9 c65c 89bb a523 edbd
00000080: 54a2 023e d2f2 e43b e087 b2bd d554 ad3d
00000090: 9cb9 80bc b242 1e3d 81d5 c23c 544c 1cbe
000000a0: b0c4 fcbd 4357 8abd 3349 83bd 772c 2d3e
000000b0: 4cf5 533d 5840 05be e807 a93c 95bd 0dbd
000000c0: 748a 07be 5ad5 593d 2227 32be 6c58 fe3a
000000d0: b264 ecbd cf10 9fbd 040b 30be 1e83 f8bc
000000e0: 2c7c 863d f76e d5bc d74d d7bd 8610 0bbe
000000f0: 23fa 993d b04e 3cbd 1c91 8f3d 5f26 0abd
0.10030899 -0.028181132 -0.19084336 -0.052230224 0.124116994 0.01220723 -0.09403793 0.07788168
-0.02612149 -0.24733546 0.1709094 0.12543252 0.10016661 0.055361215 -0.009775558 -0.058615237
-0.016319059 -0.04960592 -0.033703763 -0.21921992 -0.11321654 0.027274003 0.09955613 0.008876554
-0.12827668 0.28338563 -0.027421534 -0.20496112 0.16218497 -0.00042394167 -0.0041919677 -0.11579064
0.12757236 0.0069869542 -0.08717322 0.08463446 -0.015713505 0.038637824 0.023783447 -0.15263492
-0.12342203 -0.06754925 -0.06410446 0.16911493 0.051747605 -0.13012826 0.020633653 -0.034604628
-0.1323641 0.053181984 -0.1739774 0.0019405014 -0.115426436 -0.07766878 -0.17191702 -0.030335959
0.06566653 -0.026053889 -0.10512894 -0.13580522 0.07518413 -0.04597348 0.07010099 -0.033728

fc2.weight f4 [64, 64]
00000000: abc8 a5be d234 c03d 644a a83d 5acc d33e
00000010: 4e23 a13e 639a c3bd b000 413e 9684 80be
00000020: d73f 293e e669 42bd 818f 833d 26ef 86bd
00000030: 16a6 68be b949 823e 1940 04be 6f20 48bc
00000040: 8bef 87be 50cc b73d fcf1 18bd f951 8f3e
00000050: a46c 873d b53c f83d 6680 54bd f08b 763d
00000060: 2814 22bd cd0d 5c3d b337 e2bd b212 a8be
00000070: ae02 b7bd efbe 503e 6bc6 3e3b 95bd 493e
00000080: a0f2 e33d 5f86 e23d ce98 7cbe e5de 763e
00000090: 14fe 8ebe bce0 8b3e f9fe 553d 103f 5cbd
000000a0: ef62 31bd e726 55be ed32 383d ce7f 08be
000000b0: 0285 f6bd 0e29 0ebe 8542 d3be a88b 273e
000000c0: afed a5bd ced0 063e c369 cdbe d247 c4be
000000d0: dffa 8bbe 897b 3fbe eb08 79bc ef28 4ebe
000000e0: ea58 383d 81f2 eebd 422d 0fbf d4f4 95be
000000f0: 19c7 cb3d 956a 113e 6298 403d bcc7 0b3e
00000100: 4311 ac3d 1009 c33d 3838 f7bc c4b8 2abe
00000110: 0b0c 233d 76ed 473e 7f24 fdbd 4083 9cbd
00000120: 1fb8 35be 34bb 1abe c89b bebd 13d5 303e
00000130: cc9c dbbd d44b 8ebe 5fb2 04be fc1d b03d
00000140: 0bec b23c e8a7 a63c ce77 ebbd 31a5 93bd
00000150: 14c0 a13b d4b3 1abe 0de7 b73d 47e2 a53e
00000160: 07e4 3a3e 783a c23e 001e a03d 112a 62be
00000170: ee4e 153e 5de0 36bd 3a6b e43c 6eed adbc
00000180: 38a5 12be cad6 e5bd 5d23 a23d 457e 093c
00000190: c91e b9bc 4603 8b3e 2685 6d3d b822 1cbd
000001a0: 0722 2cbe 548a 1b3e c1bd 0a3e f6bf 9dbd
000001b0: c712 b6bd 0964 35bd bf1b 50bd 9c1a f53d
000001c0: a3cf b0bc 64f8 3e3d c7f9 d3bd 03c9 9e3d
000001d0: e76e 053b 667e 33be 4bc1 efbd e30f cbbd
000001e0: 123b 1fbe 18cb 98be 9d2c 3c3e cdcd f83d
000001f0: f09b 42be 4ee3 86bd 6bde 2b3d 9be8 7c3b
00000200: c7a7 0b3e 9642 b13d 4ad8 8cbc 34df 0cbe
00000210: 86f3 57be 2ba6 3f3d 5776 573d fd48 d53d
00000220: a0fc d1bc f515 63be b589 ef3c e9b9 453d
00000230: b32c c7bd 5b66 893d d173 a6be 6ee3 57bc
00000240: 28dc 34be 2ce9 223e 4c6a 5a3d 353e b33d
00000250: 1fa5 04be b1d4 37bd a879 9cbd 06d6 b93e
00000260: 7f98 5a3a 73b2 5bbd 8b39 f73d 1f33 80bc
00000270: 78d3 04be 1dc0 ce3d de56 60bd c055 e53d
00000280: f07e c4bd 7e88 acbd 31f4 a7be ffea 673d
00000290: 88af 553a ee03 9e3e 3129 bc3d 87a4 1ebe
000002a0: 575c 9c3d f7d0 28bb a30b a8bc d2e1 c63d
000002b0: 5b56 0abe 50a2 953c a8eb 98bd c7d7 42be
000002c0: 918d 383d c01b cf3d dc4a 6bbd e4cb ed3d
000002d0: 6dc0 44bc baec 863e a707 2ebe 42ef 33bd
000002e0: a958 17be 93e3 57be 58ff 5f3d fbc1 123e
000002f0: 0b33 41bd d304 303e a9f1 f53d 5531 2a3e
00000300: 0ef5 783c b4eb 0b3c e556 92be b066 87bd
00000310: e07f 52be 2014 e23d 9334 e13d 0d74 11be
00000320: 654d 89bc 7d6b 903d 5122 fd3c 8bb2 613e
00000330: bc70 023e de80 9d3e 326e 31be b55c 193c
00000340: 886e 04be 1474 6bbc a170 0b3e 9a4d 15bd
00000350: 9327 843c 25c5 aabd 3786 1bbd d3c5 e83e
00000360: 90bf 8d3d a925 2b3e 894d bf3d ac89 2cbe
00000370: 2641 07bd 6540 23bb 840b 57be 8c93 c2bd
00000380: a520 92be a68f 86bd b703 8ebd e4bc b43d
00000390: f8c6 84be dc95 f23e 87c0 e03d 545d a33c
000003a0: b6f0 a9bd a05b 133e 85ff 453e 8323 20be
000003b0: 3c58 17be d1d8 99bc 09a5 c53d 78ec 303d
000003c0: ac75 46bd cc31 263e 5ade 3bbe c66e a63d
000003d0: 7183 4b3d 2666 ab3e 15d9 60be 0040 563c
000003e0: cb80 bbbd b852 90bc 3938 753d ff6d 73bd
000003f0: 682c ffbc ce58 733e a432 4fbd 2d1e 2a3e
-0.3237966 0.09385075 0.08217314 0.41366845 0.31472248 -0.09550931 0.18847919 -0.25101155
0.16528259 -0.047464274 0.064238556 -0.06588583 -0.22719607 0.2544687 -0.12915076 -0.012214764
-0.26549944 0.089745164 -0.03734015 0.27992228 0.066125184 0.12120954 -0.051880263 0.06019205
-0.039570004 0.0537241 -0.1104578 -0.32826763 -0.08936058 0.20385335 0.0029109966 0.19701226
0.111302614 0.110607855 -0.24667665 0.24108465 -0.2792822 0.27319896 0.052245114 -0.05377108
-0.04330724 -0.20815621 0.04497044 -0.13330004 -0.12037088 -0.13882849 -0.41261688 0.16361868
-0.08101975 0.1316559 -0.40119752 -0.38336045 -0.27339837 -0.18699469 -0.01519988 -0.20132802
0.04500667 -0.11667348 -0.5592843 -0.29288352 0.09950084 0.14200814 0.047020324 0.13650411
0.0840173 0.09523213 -0.030178174 -0.16672045 0.039806407 0.19524178 -0.12360477 -0.076422215
-0.17746018 -0.15110475 -0.09307057 0.17268781 -0.10723266 -0.27792227 -0.12958668 0.08599469
0.02184107 0.020343736 -0.1149746 -0.07209242 0.0049362276 -0.15107661 0.08979616 0.32399198
0.18251048 0.37935233 0.07818222 -0.2208636 0.1458089 -0.044647563 0.02788316 -0.02123138
-0.14320838 -0.112226084 0.07916901 0.008391921 -0.022597687 0.27150935 0.05798831 -0.038119048
-0.16809855 0.15189487 0.13548948 -0.07702629 -0.088903 -0.044284854 -0.05080771 0.11967966
-0.021583384 0.046623603 -0.103503756 0.07753184 0.0020360292 -0.17528686 -0.117067896 -0.099151395
-0.15549877 -0.29842448 0.18376394 0.121486284 -0.19004798 -0.06586324 0.04196016 0.0038590792
0.1363822 0.086552784 -0.017192978 -0.1375702 -0.2108899 0.04678933 0.052603092 0.10414312
-0.025633156 -0.22176345 0.029240469 0.048273 -0.097253226 0.06708976 -0.32510236 -0.013176782
-0.17662108 0.1590926 0.05332403 0.087520994 -0.12953614 -0.044880573 -0.076403916 0.362961
0.0008338764 -0.05363698 0.12071522 -0.015649376 -0.12971294 0.100952365 -0.054770343 0.11197996
-0.09594524 -0.08424471 -0.3280349 0.056620594 0.00081514614 0.30862373 0.09187544 -0.1549245
0.076348 -0.0025759318 -0.020513361 0.097110406 -0.13509504 0.018265873 -0.07466823 -0.19027625
0.045056883 0.10112715 -0.05744444 0.11611155 -0.0120087685 0.26352483 -0.16995107 -0.043929346
-0.14779915 -0.21082906 0.054686874 0.1433181 -0.04716782 0.1718934 0.12008984 0.16620381
0.015195144 0.008540083 -0.2858192 -0.06611383 -0.20556593 0.11038995 0.10996356 -0.14204426
-0.016760537 0.07051752 0.030900152 0.22040765 0.12738317 0.3076238 -0.17327192 0.009360482
-0.1293279 -0.014370937 0.13617183 -0.03645096 0.016132152 -0.083383836 -0.037969794 0.45463428
0.06921303 0.16713585 0.093409605 -0.16849393 -0.033021115 -0.0024910208 -0.21000487 -0.095007986
-0.2854053 -0.065703675 -0.06934302 0.088250905 -0.2593305 0.4737996 0.10974222 0.019941963
-0.08297865 0.14390421 0.19335754 -0.15638547 -0.14779752 -0.018780144 0.096506186 0.043194264
-0.048452064 0.16229934 -0.18346539 0.08126597 0.0496859 0.3347637 -0.2195781 0.013076782
-0.09155425 -0.017617568 0.05986807 -0.059431072 -0.031149104 0.23764345 -0.050585404 0.16613074

fc2.bias f4 [64]
00000000: d4f8 82bd 0bfd cf3c d509 0cbb 5066 e3ba
00000010: 92d4 dd3d b331 4abe 9417 09be 3d0d 323e
00000020: f1e5 443e a17f c43e 37f8 89bc 3789 543e
00000030: 1ef6 703e 818b 31bd f6a0 9bbd 5b22 033d
00000040: 5759 cc3c 3451 8b3b 5493 76bd a574 f63d
00000050: b842 7d3e 65f8 e93e 2349 353c 06ae febd
00000060: 2a0d 893c 04da 81bd fe9b aa3d 9d44 1ebd
00000070: 21a4 06bd dde4 b03d f455 3fbb 293c 24bd
00000080: ca88 66bd 2b24 9a3d 376b db3d 948d d1bb
00000090: d49d c7bd b9d2 47bd 2baf a63d 635f 623d
000000a0: b442 1abe 78c7 e53e 4cfa 8d3e 996f 99bd
000000b0: ff61 ad3d 7a69 45be 5b51 8b3e 116c 2cbd
000000c0: 9a0c 6dba 15b3 c8bd ce9b 13bd a31a 7a3e
000000d0: f040 35bd 7248 1ebe 29e4 343e b6f1 16be
000000e0: a47d 3fbe 8bc9 c7bd 90e4 11bd 1563 d0bd
000000f0: bfed 163c 1ddf 303e d32a 273d 16aa a5bd
-0.063951164 0.025389215 -0.0021368165 -0.0017349217 0.1083156 -0.19745521 -0.133879 0.17387863
0.1922834 0.38378623 -0.01684199 0.20755468 0.23531386 -0.043345932 -0.0759906 0.032015186
0.024944944 0.0042516235 -0.060199097 0.12033967 0.24732482 0.45697322 0.0110648 -0.12435536
0.01672991 -0.06340411 0.083305344 -0.038639653 -0.03287137 0.08637402 -0.002919552 -0.040096436
-0.056282796 0.0752643 0.10713809 -0.0063950513 -0.097469 -0.048784945 0.081388794 0.05526675
-0.15064508 0.44878745 0.27730024 -0.07491989 0.08465957 -0.19278517 0.27210507 -0.042095248
-0.00090427103 -0.09799782 -0.03603726 0.24424224 -0.044251382 -0.15457323 0.17665161 -0.14740643
-0.18700272 -0.09755238 -0.035618365 -0.101751484 0.0092119565 0.17272611 0.040812325 -0.08089082

fc3.weight f4 [4, 64]
00000000: c859 5c3e f659 763e 0e23 69bd 3013 9bbd
00000010: e1e6 6a3e e558 5fbe ebcf c63d 47e5 a93c
00000020: 8c64 073e 1389 063e 8a3f 28be 0424 6a3e
00000030: 5001 b83d 217d 023f 5944 dbbc 0184 db3c
00000040: 5663 913e fadb 12be 9051 04bd 0da1 3f3e
00000050: 5d41 cd3d 9808 543e d180 9f3e 4a91 06be
00000060: 7b39 363e 84c0 97be d9b2 56be 4f27 0dbf
00000070: c1fe acbd ef95 5a3e 9723 26be 6167 693e
00000080: f27d c6bd 4ff2 013e 3b6a 263e f8bf f93c
00000090: 72ce f23d 6f47 6ebd bc1c 833e 064e 333e
000000a0: 330d b0bc 146d 243e ec38 443d 88ce 3f3e
000000b0: 6e53 b13e e203 c0bd c243 2e3e 3b3b 463e
000000c0: 7055 8dbe 6f0f 8d3d 6e5d 333e 4f28 fa3e
000000d0: 520c bdbd 088c 68be aa82 523e 79a1 e9bc
000000e0: 7a29 f3be 338f 02be 43eb 953e a2d1 f93d
000000f0: 8a6c aabe b0d2 853e a058 43be 05e7 f03d
00000100: 54b8 d5bd 2b51 1f3e e394 4a3d 6cfa 60be
00000110: 1534 6d3e add7 70be 166f 7e3d 8af8 993d
00000120: 528d 363d e487 e83d 6987 b33c 0edb 9b3e
00000130: 0338 d139 ada9 9e3e 60de a5bc 9d57 f23d
00000140: 1de0 ca3e eccf cbbd f4f0 59bd 6ec9 523e
00000150: 76b8 2b3e 5755 513e 179a 883e f171 febc
00000160: 9949 0f3e 6631 42be 1a2c d8bd 86cf 123e
00000170: a4de 923d 61a9 a23e 854a f4bd 61e8 a73e
00000180: dc72 403e e05c b73d 1502 f23d dc76 163d
00000190: 5802 0abd 8151 8d3d 02bb fe3e 3ee5 043e
000001a0: 98bc 9abd 5023 283e 0037 8d3d d38c 8d3e
000001b0: abfd 7f3e f1e3 f4bd 83b2 2b3e bc54 c83e
000001c0: 89a3 d6bd b6a2 2c3e abf3 bf3d 0346 6e3e
000001d0: 2b92 ca3d 49fb 05be 594c 653e 8750 f3bd
000001e0: 0357 5fbe 1980 8bbe 4056 ad3e b63b 96be
000001f0: 4288 57be 96e1 0b3e 9d90 1ebe 7c3b 863e
00000200: 2d54 f3be 9adc be3d f99a d7bc bba7 933d
00000210: 0ced a33e ea40 8dbd 860c c93d 776d e33d
00000220: e9bb ab3d d226 193e af6e 2dbd 48f2 953e
00000230: f276 2f3e dc1b 493e 665c 98bd 878f 9f3e
00000240: ba44 20be 19b4 9abe 43b2 c0bc 84f4 f4bc
00000250: 9d6d 943d b4b6 643e 38d2 f33e 8fe6 99bb
00000260: 72ac 843e dcc8 b9be 1fd2 cc3d 4e26 0e3c
00000270: d132 09be 8d4f 273e b0ac 24bd 876f 713d
00000280: 3d3a 1cbf 418a 283d 7b6c e53d 4778 e03e
00000290: de93 6c3e 6a69 94bd 28be 053f 43f6 bb3d
000002a0: 1d05 abbd 8018 083e 3da9 5c3e 6de6 e13e
000002b0: f86d 71bd 8256 05be 36d8 273e d11e 083f
000002c0: a6d3 a13d 156b b7be 6779 323e 1385 963e
000002d0: 37ca ebbe 5e21 0cbe 1a56 8d3d 4300 13be
000002e0: 3bfc 763d f400 833e f883 a9be 553d f0bc
000002f0: 05c8 7bbd 226d 3d3e 8b8e c7be 34fb 793d
00000300: 15a8 9abb 6ef7 143e bc3c 8cbe 8d59 abbe
00000310: 3e49 653e 057a 883d b441 52bd 04ae 803e
00000320: 297e 053e 517b 4a3e 80c3 f23d df2f 223e
00000330: 7444 313e 3e90 0a3f 00be 723d ccd1 ec3d
00000340: 3f1a 0a3f 740e 413e 78b8 fc3d 92e5 1b3e
00000350: 9337 9e3d 6e1e 3d3e f23d 053c 65f9 073e
00000360: 1397 453e aa08 f8bd 0616 84be 8680 f03d
00000370: 19d1 d13d 0a99 953e c82c 03be c948 963e
00000380: 8ed6 cfbe bfee ab3e 877d 3b3d 5471 ba3d
00000390: 41a0 a9be ed9c 6c3e 2cd7 d4bd 6c72 9c3d
000003a0: 01a0 93be ec04 723e bf15 fa3d 3faf 0dbc
000003b0: 1cca 7ebc c12e 58be 09cb 0d3e 5a3a 3e3e
000003c0: 2f4a be3d fdcd 20bf d750 9f3e 997d ba3e
000003d0: bc6f b0be 7451 abbe 6be7 413e 8ee6 3ebd
000003e0: a9da aabe 74aa 41be 0a8c 083e 0825 0bbf
000003f0: 0642 b6be 3a87 0d3d 6f79 2fbe 6d07 b03e
0.21518624 0.24057755 -0.056918196 -0.07572019 0.22939636 -0.21811254 0.09707626 0.02073921
0.1322195 0.13138227 -0.16430488 0.22865301 0.08984625 0.5097218 -0.02676599 0.026796343
0.283961 -0.14341727 -0.032304347 0.1871378 0.10022233 0.20706403 0.31152967 -0.13141361
0.17795365 -0.29639065 -0.20966662 -0.55138105 -0.08447028 0.21346258 -0.16224514 0.22793342
-0.09691991 0.1269009 0.16251461 0.030487046 0.118557826 -0.058173593 0.2560786 0.17510232
-0.021490669 0.16057235 0.047905847 0.18731129 0.34633964 -0.093757406 0.17018035 0.19358532
-0.27604246 0.06887709 0.1751611 0.48858878 -0.092308655 -0.22709668 0.20557657 -0.028519379
-0.47492582 -0.12749939 0.29281053 0.121981874 -0.33285934 0.26137304 -0.19076777 0.117628135
-0.104355484 0.15558307 0.049458396 -0.21970528 0.23164399 -0.23519774 0.06211766 0.07518108
0.044568367 0.11354044 0.021915155 0.30440563 0.00039905318 0.30988827 -0.020247638 0.11833117
0.3962411 -0.09951767 -0.053208306 0.20584652 0.16769585 0.20442711 0.2668006 -0.03106019
0.13992919 -0.18964157 -0.10555287 0.14336976 0.071713716 0.3176985 -0.11928276 0.3279448
0.18793815 0.089532614 0.11816803 0.036734447 -0.03369364 0.06900311 0.4975205 0.12978074
-0.07555503 0.1641972 0.06895256 0.27646503 0.2499911 -0.11957539 0.16767316 0.39127147
-0.104804106 0.16858944 0.09372648 0.23268895 0.098911606 -0.13084139 0.22392406 -0.11880594
-0.21810536 -0.27246168 0.33854866 -0.2934243 -0.21048072 0.13660273 -0.15484853 0.26217258
-0.4752516 0.0931942 -0.026319014 0.072097264 0.3201679 -0.06897147 0.09816842 0.11104863
0.083854504 0.14956215 -0.042341884 0.29286408 0.17135218 0.19639534 -0.074394986 0.3116419
-0.15651217 -0.3021553 -0.023522502 -0.02990175 0.072474696 0.2233532 0.47621322 -0.004696674
0.25912815 -0.36286056 0.10001015 0.008676125 -0.13398291 0.1633894 -0.04020375 0.05894425
-0.61026365 0.041147474 0.11202332 0.43841764 0.23103282 -0.07246669 0.5224328 0.0917783
-0.08350585 0.13290596 0.21548934 0.44121113 -0.058942765 -0.13021281 0.16391072 0.5317202
0.07901697 -0.35823885 0.17429124 0.29398403 -0.46052715 -0.13684604 0.06901188 -0.14355569
0.06029914 0.25586665 -0.33108497 -0.02932612 -0.06147005 0.18498662 -0.3897594 0.06103058
-0.004719744 0.14547512 -0.27390087 -0.3346676 0.22391221 0.066638984 -0.05133219 0.25132763
0.13036408 0.19773604 0.11853695 0.15838574 0.17311269 0.54126346 0.05926323 0.11563453
0.539463 0.1885317 0.12339872 0.15224293 0.07725444 0.18468639 0.008132445 0.1327873
0.19295911 -0.121110275 -0.25798053 0.11743264 0.1024496 0.29218322 -0.12810051 0.29352406
-0.4059338 0.33580586 0.04577401 0.09103647 -0.33130077 0.23106737 -0.10392603 0.07639012
-0.2883301 0.2363469 0.12211179 -0.008647739 -0.015551116 -0.21111585 0.13846983 0.18576947
0.09291493 -0.62814313 0.31116363 0.36423948 -0.34460247 -0.3346058 0.18935935 -0.046606593
-0.3336995 -0.18912679 0.1333467 -0.5435338 -0.35597247 0.03455279 -0.17136167 0.34380665

fc3.bias f4 [4]
00000000: 14a7 8a3e 963b 893e 3a27 503e 2ba9 e23d
0.27080595 0.26803273 0.20327464 0.110674225
